03_pytorch_computer_vision/models/03_pytorch_computer_vision_model_2.pth (torch, 35275 bytes, 10 tensors)

conv_block_1.0.weight f4 [10, 1, 3, 3]
000000 17 74 c8 3e 98 2d 6c 3e cc 75 d8 be 9e 6e 74 3e
       0.3915107 0.23064268 -0.42277372 0.23870322
000010 33 96 48 3e 1b a5 92 bd d8 3f 78 be cc cb 81 3e
       0.19588546 -0.071603976 -0.24243104 0.25350797
000020 4f 1e 8a 3e 5c ff ae be 86 09 e5 3e 65 b4 8b bd
       0.2697625 -0.341792 0.44733828 -0.06821517
000030 93 79 22 3e 0a 4f 0d 3f 11 72 52 3e b1 1e 9e be
       0.1586669 0.5519873 0.20551325 -0.3088279
000040 39 4a d1 3e ea 6e a2 3d 01 23 c7 be 29 bc 39 be
       0.4087694 0.079313114 -0.38893893 -0.18138184
000050 95 65 14 bd 5d 44 51 bf ff cc 46 bf 85 c6 06 3e
       -0.03622969 -0.8174494 -0.7765655 0.13161667
000060 04 7f 5e bf 26 bf 46 bf 2a 6d 23 be d6 c0 20 bf
       -0.8691256 -0.7763542 -0.15959612 -0.62794244
000070 d1 20 39 bf 41 c9 11 bf bd dd 96 3e d2 4f f3 be
       -0.723157 -0.56947714 0.29466048 -0.47521836
000080 80 cc 83 3e 03 22 ae 3e f9 b3 8e 3d 9f 2a dc 3e
       0.2574196 0.34010324 0.06967921 0.43001267
000090 9d aa 92 bd 10 cf b2 3e 29 72 17 be aa 8a 46 be
       -0.07161448 0.349236 -0.14789642 -0.19388834
0000a0 6e 71 b6 3e 23 6d 47 be 47 7d a6 3c ca d2 e4 3e
       0.35633415 -0.19475226 0.020323409 0.4469207
0000b0 34 a1 0c 3d 0f 3f 17 be 26 d4 3c 3e 46 0a 63 3d
       0.034333423 -0.14770149 0.18440303 0.05542972
0000c0 33 8a 29 3e a1 67 52 be 8b 86 a9 be 38 8e 03 be
       0.16556625 -0.20547344 -0.3311046 -0.12847221
0000d0 65 4b 84 be 15 fc 7e 3e 24 8c e1 3d 5c 57 e4 3d
       -0.2583877 0.24900849 0.11013058 0.11149475
0000e0 fe 94 8e 3c 9a 9c 4b bc 38 76 36 3e 13 e6 7d be
       0.01740503 -0.012427473 0.17818534 -0.24794798
0000f0 a6 da ca bd 6b 4b e2 be a7 e6 04 3d df 57 ed bd
       -0.09904985 -0.44198164 0.03244653 -0.11589026
000100 78 c1 15 3d c0 3b 0b be 94 c5 8c 3e 93 ac 5a be
       0.03656146 -0.13597012 0.2749449 -0.21354894
000110 e3 43 7d be 3d 6d 53 be a1 f3 c9 3e 69 f7 34 3e
       -0.24732928 -0.2064714 0.39443687 0.17672504
000120 f9 4d cf 3e 5e 5f d4 be 93 e4 cb be 91 49 88 be
       0.40489176 -0.4147901 -0.39822826 -0.26618627
000130 06 cb a6 be 4b cc 1b 3e e7 28 ce 3e a6 da ff 3e
       -0.3257677 0.1521465 0.4026558 0.49971503
000140 6a 05 1b be e1 1d 68 be 9f 80 35 3e 1d b4 09 be
       -0.15138784 -0.22667648 0.17724846 -0.13447614
000150 b8 80 4f 3e 35 a8 a4 bd 5e 9a 42 3e e1 85 84 be
       0.20263946 -0.080398954 0.19004199 -0.25883391
000160 0f 81 2c be 24 d9 d0 3d
       -0.16846107 0.10197666

conv_block_1.0.bias f4 [10]
000000 f5 56 cd 3c fb b1 96 3d fa 66 8c 3e da d7 32 3d
       0.025065878 0.07358166 0.27422315 0.043662883
000010 3d 2c e4 bd 17 47 57 be ab dc 7e 3d 15 ed 47 bd
       -0.1114125 -0.21023212 0.062222164 -0.048810083
000020 5c eb f1 bc 28 20 a5 be
       -0.029531173 -0.32251096

conv_block_1.2.weight f4 [10, 10, 3, 3]
000000 05 92 c7 3d d3 6c 7b 3d 31 d3 03 3d 53 ab f4 bd
       0.09744648 0.06138308 0.03218383 -0.1194674
000010 be e3 57 be 7b 9f 4d be 9d af 25 be df 23 76 be
       -0.2108297 -0.20080368 -0.16180272 -0.24037121
000020 9e 00 50 be 42 d0 91 bd 0b 2c 13 3d d0 37 d8 bc
       -0.20312735 -0.071198 0.035930675 -0.026393801
000030 9b 94 73 be 7e af a3 be cb af 5f be 9d 22 4c be
       -0.23787157 -0.31969827 -0.21844403 -0.19935079
000040 91 e0 4d be 99 6c 62 be c1 be c5 bd f2 52 83 bc
       -0.20105197 -0.22111739 -0.09655524 -0.016030762
000050 2c 47 ae 3d b7 94 96 3d a6 b9 9d 3e 5c fe 55 3e
       0.08509669 0.07352584 0.308057 0.20897812
000060 f7 d4 e5 bd e9 db f2 3c a6 2d 1b 3e 10 ac e9 bd
       -0.112222604 0.029645877 0.15154132 -0.114097714
000070 02 82 2a 3d c3 16 cd bd 87 f2 17 3b 0d bb 02 bd
       0.04162789 -0.10014107 0.002318533 -0.031916667
000080 db 29 9a bd 82 e1 02 3e 03 63 5f bc 5b de 14 3d
       -0.075275145 0.12781337 -0.013634446 0.036344867
000090 79 52 df bd 26 61 fb bd be 9b c4 3c 3a f8 34 bd
       -0.10904402 -0.12274389 0.024000045 -0.04418204
0000a0 8a 8f 06 3d ae 1f ce bd f4 17 96 3d 6b 37 b5 bd
       0.032851733 -0.10064636 0.073287874 -0.08848461
0000b0 c2 ee 28 bd cc 5f b7 3c 79 a7 60 3d e5 99 ad 3d
       -0.041243322 0.022384547 0.054847214 0.08476619
0000c0 a1 a0 c4 3d 1e 17 ab bd 14 21 e1 3c d1 39 39 bd
       0.0960095 -0.08354019 0.027481593 -0.045221154
0000d0 90 01 49 bc f3 a5 a0 bd 97 03 44 3e ac f1 dd bc
       -0.012268439 -0.07844152 0.19141994 -0.027092777
0000e0 31 f1 d5 3c 48 19 0f 3e 0f eb a0 3d c8 db d0 bc
       0.026115986 0.13974488 0.07857334 -0.025495425
0000f0 44 3f 58 3d 12 d2 f3 3b bc 44 eb bc fc 54 af bd
       0.05279471 0.007440814 -0.028719299 -0.08561131
000100 09 5f 39 3d 1c d5 4e bc 31 06 46 bd 1a 40 ba 3d
       0.04525665 -0.012624051 -0.04834575 0.09094258
000110 dc 3b 4c 3c 6e 23 6d bd bc ec 84 bd bb 76 30 bc
       0.012465443 -0.057895117 -0.06490466 -0.010770495
000120 9c 79 60 3d fb 23 2d bc cc 52 5c bd 0d 5c 75 bd
       0.054803476 -0.01056766 -0.0537899 -0.05990224
000130 d0 53 96 bd d3 9e 3a 3d 23 e2 08 3e 88 a3 e8 bd
       -0.07340205 0.045561623 0.13367514 -0.11359316
000140 da b1 2c 3c a9 08 5f 3d 53 9a 9c 3c 9e c2 19 bd
       0.01054045 0.05445162 0.019116556 -0.037539117
000150 91 57 61 3d c5 e4 62 3d 47 74 21 3d d7 bc 97 bc
       0.05501515 0.055393953 0.03941753 -0.018522663
000160 e9 a4 e4 bc 97 a3 38 3c b6 c0 9a bc da c2 7a bb
       -0.027910667 0.011269472 -0.01889072 -0.0038263113
000170 a8 6c b5 3d 52 b4 92 3d db aa ff 3b 5e 3b 73 bb
       0.08858615 0.071632996 0.00780235 -0.0037114243
000180 f1 d2 cb bc 50 d3 00 bd d6 ed 44 3b 6a c4 37 3d
       -0.024880858 -0.031451523 0.0030048988 0.04486505
000190 6a a2 80 bd e3 7b fa bc e9 ba b5 3d 0a 00 72 3d
       -0.06280978 -0.030576652 0.08873541 0.05908207
0001a0 4d 83 9a ba 36 fe e7 bd fd 73 b6 bd 2b 60 ec bd
       -0.0011788398 -0.11327784 -0.08908842 -0.1154178
0001b0 f1 16 0f bd d2 e5 07 3d d7 36 61 3d 96 7f 3d 3d
       -0.034933988 0.033178158 0.05498394 0.046264254
0001c0 85 c7 c3 bd fd 0c 95 bd 83 3f c8 bc 72 06 c8 3d
       -0.0955954 -0.07277868 -0.024444347 0.09766854
0001d0 fa fb 19 3c 18 c9 98 bc ad 00 31 3d d9 a3 13 bd
       0.009398455 -0.018650576 0.043213535 -0.03604493
0001e0 13 c7 89 bd 91 92 95 3d e9 be 44 bd 47 f3 ac bc
       -0.067274235 0.07303346 -0.04803363 -0.021112097
0001f0 89 98 de bd 53 4f 8e 3d f2 7f 9a 3d ba f1 27 3d
       -0.108689375 0.06948724 0.07543935 0.041002013
000200 6d 94 9a bd 4d 42 03 be e7 7d ca bd 8c dc 94 3d
       -0.07547841 -0.1281826 -0.09887295 0.072686285
000210 ea c5 ea 3c 8e 7a a9 3d bf 9c 49 3d e1 5f da 3c
       0.028658826 0.082753286 0.04922175 0.026657047
000220 c1 6b 81 ba 5c 27 a4 bd e0 e1 b8 bd db c1 c9 bd
       -0.0009874032 -0.0801532 -0.09027457 -0.09851428
000230 0a a3 31 3d f4 e9 53 bd 30 ee ad bc f6 5e 78 bd
       0.043368377 -0.051736787 -0.02123174 -0.060637437
000240 6a ff c9 bc 4d 0b 95 bd bf 8a 8c bd 73 e5 31 3d
       -0.024657924 -0.07277546 -0.06862401 0.04343171
000250 26 bd 9d bc a7 3d 9e 3d 09 da 0d bd 2c df af bd
       -0.019255232 0.07726603 -0.034631763 -0.085874885
000260 cf 3d e4 bc 7c 0c 51 bd b2 f7 01 bd 22 cd ce bd
       -0.027861504 -0.051037297 -0.03173036 -0.1009772
000270 93 d4 79 3d 41 4d 94 bd 4e a7 57 3d ef 46 46 3d
       0.060993742 -0.072412975 0.05264979 0.04840749
000280 d5 ea 9b 3d 7a c1 a6 bd 44 99 a4 3d 46 1e 40 bd
       0.0761315 -0.081423715 0.080370456 -0.04690387
000290 03 41 2c 3d 9d 1c c3 3d 75 20 94 bc b9 5e da ba
       0.042054188 0.09526942 -0.018081883 -0.001666031
0002a0 d3 f4 e0 bc 54 c0 bb bd a0 8c 58 3d c2 4e d6 bd
       -0.027460491 -0.09167543 0.052868485 -0.104642406
0002b0 8e 00 86 3d a1 84 a1 3d 5e 2d cc 3d a1 ae cb bc
       0.065430745 0.07886625 0.099695906 -0.024863543
0002c0 aa 65 b1 bd cf 24 c2 3c 72 83 6e 3d ec dc d6 bd
       -0.08661969 0.023699192 0.058230825 -0.10491356
0002d0 4f 9e c4 bc c9 42 82 bd e4 1a 21 bc f4 87 5f bd
       -0.024001269 -0.063603945 -0.009833071 -0.054573014
0002e0 92 af 38 bd 94 d1 14 bd bd 7b e3 bd df 55 a0 3d
       -0.045089312 -0.03633268 -0.111075856 0.078288786
0002f0 37 82 ab 3d 42 bc 87 bc 93 13 4a bc 16 5b 32 bd
       0.08374446 -0.01656926 -0.012333768 -0.043543898
000300 99 a9 ca bd c3 2f d3 bd 65 e5 15 3d 7b 6d 8a bd
       -0.098956294 -0.10311844 0.03659572 -0.06759163
000310 4d e4 9b bd ed 54 5e bc c7 b7 15 bd 48 6d 1c bd
       -0.07611904 -0.013570053 -0.036552217 -0.038190156
000320 96 a1 8a ba ff e0 b0 bc f8 89 0f bd c8 53 4e bd
       -0.0010576721 -0.021591661 -0.035043687 -0.05037287
000330 b8 0c b0 bd b2 6b b3 3d b6 af 2c bd 9f 3d d5 3c
       -0.08596176 0.087607756 -0.04215976 0.02603036
000340 62 a1 17 bd 30 83 ff 3b de 34 b7 3d 5a 81 2e 3d
       -0.03701914 0.007797621 0.089456305 0.042603828
000350 b3 9f c2 bd db 38 0e 3d 97 06 b5 3d e1 ca ab 3c
       -0.095031165 0.03472219 0.088391475 0.020970764
000360 eb d5 90 3d fb d4 d4 3d ef 0b 84 bc a6 90 9f 3c
       0.070720516 0.10392185 -0.016118972 0.019478153
000370 42 95 97 bd 70 3d b6 bc 03 08 98 3d 82 43 51 3d
       -0.074015155 -0.022246093 0.07423403 0.05108977
000380 82 78 8e bd 06 1c ad bd f6 85 93 bd c2 0e d5 bd
       -0.06956579 -0.08452611 -0.072032854 -0.104032055
000390 dd 92 a6 bd 55 fc d5 bc 20 d8 91 3d a7 7a 90 3c
       -0.08133481 -0.026121298 0.07121301 0.01763661
0003a0 bb 15 a4 bd c0 2e ad bd 31 cb 4f 3d c1 05 a5 bd
       -0.08011957 -0.084561825 0.050730888 -0.08057738
0003b0 84 10 7d bc ca 14 50 3d a4 d3 4a bd 51 71 3e bc
       -0.015445832 0.050801076 -0.049518242 -0.011623696
0003c0 2e 24 22 bc 40 7d c8 bc 3a 27 5c bd 27 6c c0 bd
       -0.009896321 -0.024473786 -0.053748347 -0.093956284
0003d0 b2 81 ae bd 15 3f 67 bd 18 d0 cb 3d e8 55 50 bd
       -0.08520831 -0.056456644 0.099518 -0.050863177
0003e0 89 9c 92 bd 06 04 c0 3c f9 71 cf 3c cb c5 69 3d
       -0.07158763 0.023439419 0.025322901 0.057073396
0003f0 78 3e a2 3d dd d5 70 3d 3a 12 d6 bd f0 82 9e 3b
       0.07922071 0.058797706 -0.10452695 0.0048373863

conv_block_1.2.bias f4 [10]
000000 13 2b c5 3e 19 b1 ff bc 52 41 8d bd a6 6b e4 3e
       0.38509426 -0.031212376 -0.068972245 0.4461338
000010 b7 0f d3 bd ad 34 26 3d 34 c4 95 3e 85 73 20 be
       -0.10305732 0.04057758 0.29251254 -0.15669067
000020 03 7d a0 3e a7 34 0f 3c
       0.31345376 0.008740581

conv_block_2.0.weight f4 [10, 10, 3, 3]
000000 69 75 f8 bc 0d e9 7d be 3f 14 71 3d 8e 3e 9b bd
       -0.030329423 -0.24795933 0.0588572 -0.07580291
000010 83 37 0b be 95 91 40 3e 13 06 b5 bd b4 e0 4d 3d
       -0.13595395 0.18805535 -0.08839049 0.05026312
000020 02 37 06 3e 36 e5 79 3d 84 2f d0 bd 34 dd 31 bd
       0.13106921 0.06100961 -0.10165313 -0.043423846
000030 ce 12 b6 bd 29 47 86 bd 1d 52 54 3d 72 e9 45 bc
       -0.088903055 -0.065565415 0.05183612 -0.0120795835
000040 c2 24 44 3d 60 29 80 bd 86 c7 7e 3c 52 41 82 bd
       0.047886617 -0.06257892 0.0155505 -0.06360115
000050 4e 32 56 3d 44 77 3c bd 0a bf cf bc 8c cc bc bd
       0.052294068 -0.046012178 -0.02535965 -0.09218702
000060 f3 9c 15 3a 98 6f cc 3d 4e 49 53 3d 99 a1 71 be
       0.0005707286 0.09982222 0.05158358 -0.23596801
000070 07 c6 3b 3e 54 a7 4a be e8 1b 12 be 33 0e 9d 3e
       0.1833726 -0.19790393 -0.14268458 0.30674896
000080 6a 0b 7d bd 0c bb 02 3e 0a e2 ea bd 32 9f e4 bd
       -0.061778463 0.12766665 -0.11468895 -0.111631766
000090 04 bf 1a 3d 2f 78 1f 3d 86 2a c3 3c b4 36 9c bc
       0.037779823 0.038932975 0.023823988 -0.019069053
0000a0 74 f0 07 3e 86 c4 7c bc 1a ab 2e bd 4a 49 0b bd
       0.1327532 -0.015427714 -0.042643644 -0.03400544
0000b0 96 2d b8 3d d1 a6 90 bd 45 fe 33 be 60 a0 a9 bd
       0.0899307 -0.07063068 -0.17577465 -0.08282542
0000c0 e7 87 74 3d d3 ae 90 bd c0 ba 10 be 32 01 b9 3d
       0.05969992 -0.07064595 -0.1413374 0.09033431
0000d0 e8 5d b0 3d 98 a8 85 3d 50 11 43 be 77 3b 69 3e
       0.08611661 0.06526297 -0.19049573 0.2277659
0000e0 c1 11 5f be 68 f5 05 3e ea 81 2a 3e b0 44 36 3c
       -0.21784116 0.13081896 0.16651121 0.011124775
0000f0 08 be fb 3e 19 c4 8f bd 79 ec 0e bd 11 a6 bc 3d
       0.4916842 -0.070198245 -0.034893487 0.09211362
000100 7f c6 55 3d df ad 4e bd 70 44 05 3e e7 40 11 3e
       0.052191254 -0.050458785 0.13014388 0.14184915
000110 c1 23 19 be dd e0 4c 3e 54 72 02 be 3c 3a a2 bd
       -0.14955045 0.20007654 -0.12738925 -0.079212636
000120 34 8b 48 be 10 49 12 bd 0b 6a a4 bd 1b 52 25 3e
       -0.19584352 -0.03571421 -0.080280386 0.16144602
000130 27 d5 4f 3e fe 14 64 3d d9 23 0c 3e c1 71 50 be
       0.20296155 0.055684082 0.1368555 -0.20355894
000140 31 b8 8e bb be a8 9c 3e af a2 8b 3c c5 bb 4c 3d
       -0.0043554534 0.3059749 0.017045347 0.04998376
000150 86 a8 6c 3e 9d 6d 88 3e 60 59 16 bc 6b f0 d1 3b
       0.23111162 0.26646128 -0.009176582 0.006406834
000160 b4 5c 73 3e 05 1c 06 3d de d7 98 3c 73 9c 71 be
       0.23765832 0.032741565 0.018657621 -0.23594837
000170 0f 0d bc bd 72 e1 25 3e 85 92 ac be b8 d2 1c be
       -0.09182178 0.16199282 -0.33705536 -0.15314758
000180 65 5f 76 3c cb 3e 3b bb 12 aa df bd d2 df 44 3d
       0.015037392 -0.0028571363 -0.1092111 0.048065014
000190 bc fb 34 bd d2 65 da bd cd a9 95 bd fc fb ac 3d
       -0.044185385 -0.10663952 -0.073077776 0.084465
0001a0 12 d1 8f bc 9a ac e6 3c 69 77 3f bd 83 71 91 3d
       -0.017555747 0.028158475 -0.046744738 0.07101729
0001b0 8c 4c 82 3d af 34 1a 3d 7e a0 4e bd 95 50 b1 bd
       0.063622564 0.0376479 -0.050446026 -0.08657948
0001c0 16 92 97 3b 7b c5 7a bd b7 2f b1 3d 73 c7 ce bd
       0.004625569 -0.06122349 0.08651679 -0.10096636
0001d0 d5 d4 41 3d cf 74 c0 be 3c 00 8b 3e 42 9b 4b 3e
       0.047322113 -0.37589118 0.27148616 0.19883445
0001e0 73 97 a5 bd 7b 68 50 3f 87 b6 e3 3e 5e 8a 45 bf
       -0.08085527 0.81409425 0.44475195 -0.77164257
0001f0 5a 83 14 be 9c 4c ef bc ae be 19 3d 5e 3b a9 3d
       -0.14503232 -0.029211335 0.037535362 0.082632765
000200 77 9b 00 be 19 1b 53 bd 61 f4 56 bd 3e 36 70 bd
       -0.12559305 -0.051539514 -0.05247915 -0.05864548
000210 b3 7d 4d 3c 59 93 16 be 40 1b af bd da 6b c6 3d
       0.012542176 -0.14704646 -0.085501194 0.0968854
000220 36 31 e1 be 8d 32 61 be b7 95 96 3e 6e 68 09 3e
       -0.43982857 -0.2199194 0.29411098 0.13418743
000230 cd 94 99 3d 46 d3 80 3d 7e c9 00 3e 71 69 6d 3e
       0.074990846 0.06290297 0.12576863 0.23184754
000240 3c 8c 35 bf f7 ea 62 3d 3f 17 9d 3e fa 93 0d bf
       -0.70917106 0.05539986 0.30681798 -0.5530392
000250 6e b0 b2 3e c0 b6 e2 3e c8 73 9b be 84 bf 2c 3d
       0.3490023 0.44280052 -0.30361772 0.04217483
000260 17 8f 99 bd 7a e6 37 bd e3 21 8b be ad a7 27 bd
       -0.07497995 -0.044897534 -0.2717429 -0.040931392
000270 9b f8 b8 be f6 34 ea bd 06 f7 e6 bd 31 ee 43 be
       -0.3612717 -0.11435883 -0.11277585 -0.19133832
000280 b7 ab 92 bd 7e 99 36 be 5f 60 0a bf 96 04 43 3a
       -0.07161658 -0.1783199 -0.540533 0.0007439343
000290 b6 d3 88 3e c8 90 95 bd 4f ca a4 3e 0b f0 d7 3e
       0.26724023 -0.073030055 0.321856 0.42175326
0002a0 dd cf 25 be c3 d8 ab bd f0 2f 4c bd 10 0f 6e 3e
       -0.16192575 -0.083909534 -0.049850404 0.23247933
0002b0 e8 07 d6 bc eb 40 1e be a6 eb 84 3e 6e cf 3b bd
       -0.026126817 -0.15454452 0.25961035 -0.045852117
0002c0 10 9f 3d be 30 ea c8 be 0d b3 4f 3c d4 d5 40 3e
       -0.18517709 -0.3924117 0.012676966 0.18831569
0002d0 6c aa 33 bd 20 49 ad 3d 0d 36 82 3d 06 ce b9 bd
       -0.0438637 0.08461213 0.063579656 -0.09072499
0002e0 bb 58 b6 bd ed b5 d0 bd d8 c2 79 bd 38 86 1c bd
       -0.08903643 -0.101909496 -0.060976833 -0.03821394
0002f0 15 1f c5 bc d4 10 d2 bc 30 1e 5b bd b7 56 09 bd
       -0.024062673 -0.02564279 -0.053495586 -0.033529963
000300 c1 c6 1d bd c1 51 d4 3d a4 32 1e bd ed 76 9a bd
       -0.038519625 0.10367156 -0.038622513 -0.075422145
000310 86 dc 33 3d 70 86 b1 bb 43 4f a5 3d d0 e5 86 3d
       0.04391148 -0.0054176375 0.080717586 0.06586802
000320 2d 5a c6 3d 42 20 9e bd 74 c3 8a 3d 29 36 b5 3d
       0.096851684 -0.077209964 0.06775561 0.08848221
000330 49 41 55 bd 5b 6b c6 3d a9 dc a1 3d 29 bf f5 bc
       -0.052064214 0.09688445 0.07903416 -0.029998379
000340 bf 7a 8d 3b b5 a3 af bd a9 cd e7 bd 15 dc 4b 3c
       0.004317611 -0.085761465 -0.113185234 0.012442608
000350 8e 01 3c 3c c1 b5 da bd 41 37 7a 3c 11 40 f0 bd
       0.01147498 -0.10679198 0.015271963 -0.1173097
000360 b1 ce a7 3d 9c f8 cc 3d d3 17 83 3c ff e2 89 bd
       0.0819372 0.10008356 0.016002571 -0.06732749
000370 30 e9 6e 3d 7c d6 4c 3c a6 56 67 3c 07 6d dd 3c
       0.058327854 0.012502309 0.01411978 0.027029527
000380 c0 8c 82 3d b4 f5 88 bd 68 27 7e bd a6 c9 28 bc
       0.06374502 -0.06687489 -0.0620493 -0.010301983
000390 5c 4b e3 39 b3 8a 89 3d ec 25 8d bd cb c5 ed bb
       0.0004335296 0.06715908 -0.06891999 -0.007256245
0003a0 d2 9d b9 3c 75 ab 91 bc 1d 4d 23 3d 29 27 12 bc
       0.022658262 -0.017781952 0.039868463 -0.008920469
0003b0 36 1a f5 bd c9 f2 10 bd 1a 4f 7b bd 08 b0 10 3c
       -0.1196789 -0.035387788 -0.061354734 0.008831032
0003c0 98 e3 1a bd 15 e1 00 be dc 86 a6 bc 9f 1b c3 bc
       -0.037814707 -0.12585862 -0.020327978 -0.023816882
0003d0 7b 16 0a bd 69 58 b5 3d bd 4a d8 bc bb ac 93 3d
       -0.033712845 0.088547535 -0.026402825 0.0721068
0003e0 bd bc eb 3c 97 5f ce bd de 5b 8f 3c 8e de aa 3d
       0.02877652 -0.10076826 0.01749986 0.0834323
0003f0 3b 73 d3 bd 53 7b c5 bd ec ae 5d 3d c1 9e 8a 3d
       -0.10324713 -0.09642663 0.054121897 0.06768561

conv_block_2.0.bias f4 [10]
000000 cf 10 dc bd c3 ee 46 3e d1 41 18 bd 13 8d 60 be
       -0.107453935 0.19427018 -0.037172142 -0.21928816
000010 b8 be 38 bd e3 19 8b 3c 7b 9c e6 3e 7d 0c d6 3e
       -0.04510376 0.016980117 0.4504126 0.41806403
000020 d6 6f 42 3f a4 8e 57 bd
       0.759519 -0.052626267

conv_block_2.2.weight f4 [10, 10, 3, 3]
000000 0e ea e3 bd 37 5b 3c be 9a 38 fd bd f3 4d cf bd
       -0.11128627 -0.1839417 -0.123643115 -0.101222895
000010 6c 07 d4 bd d6 35 8b 3d d9 83 ac 3c 87 dd 61 bd
       -0.10352978 0.06797378 0.021058964 -0.055142906
000020 0f 0c c2 3d 86 62 34 be 2e 6c 90 be 17 33 e1 bd
       0.09474956 -0.17615709 -0.28207535 -0.10996073
000030 f4 31 f9 bd 2f 4c a9 bd 7d a8 14 bf f2 36 c0 3e
       -0.12167731 -0.08266484 -0.5806959 0.3754192
000040 dc 75 48 3e 5f a3 20 bf 4f 92 7c 3d 01 79 3c 3b
       0.1957621 -0.62749285 0.06166297 0.0028758647
000050 c0 9c ce 3d ed 99 7a bd d7 fc 83 3d b6 22 8a 3c
       0.100884914 -0.06118195 0.0644471 0.016862255
000060 01 a3 3b 3c 87 d3 95 3d a6 18 cb bd 2f 13 b9 3d
       0.011452437 0.07315736 -0.09916811 0.09036862
000070 7d ff 42 3e cf 7c 17 3d 35 a1 20 bc bf 55 86 bd
       0.19042774 0.03698426 -0.00980406 -0.065593235
000080 05 3e 0e bd 47 f4 4c bc 06 94 81 bc 9b 8c d1 3c
       -0.034727115 -0.012509412 -0.015817653 0.025579741
000090 f0 7d a4 bd b9 47 71 bc f4 4b 8a 3d 4d e6 01 bd
       -0.08031833 -0.014726573 0.06752768 -0.031713773
0000a0 1f de 05 bd 88 6e c6 3c b0 bf 31 bd e6 47 12 bd
       -0.032682534 0.024222627 -0.043395698 -0.0357131
0000b0 3e 29 fd bd cb 73 9f bd 40 6b a6 bd a2 e1 13 3e
       -0.12361382 -0.07785758 -0.08125925 0.14441541
0000c0 2a 58 b5 bb 22 20 03 3d 5e 83 d7 3d 94 f8 20 3b
       -0.0055341916 0.032013066 0.10523103 0.0024562227
0000d0 53 68 52 bd 30 33 46 bd c5 a1 0f be e1 fd 35 3e
       -0.051369023 -0.04838866 -0.14026554 0.17772628
0000e0 17 4b c0 be 71 a5 c7 be 2b 60 10 3e 04 32 a7 3e
       -0.3755729 -0.3899341 0.14099185 0.32655346
0000f0 78 59 d0 be 23 15 49 3e c5 d8 cb 3e e1 6c ad 3e
       -0.4069326 0.1963697 0.3981382 0.3387213
000100 b8 58 f0 3d 36 b2 0f be 83 2c dc bd 6a 8b 92 bd
       0.11735672 -0.14032826 -0.107506774 -0.07155497
000110 6a b8 4e 3d a7 d2 3a 3d 1b df 62 be d7 64 bd 3b
       0.05046884 0.04561105 -0.2215542 0.0057798433
000120 a1 cd ca 3e 4e 60 48 bd 7e 34 37 3e ee fb 6c bd
       0.39610007 -0.04891997 0.17891118 -0.057857446
000130 9e ca e4 be fb 70 13 3e 6f 31 b8 be 55 58 dc be
       -0.44685835 0.14398567 -0.35975215 -0.43036142
000140 0e cb 91 be 19 d7 ad bd 1d 99 51 3d 0f 83 33 bd
       -0.2847523 -0.08488292 0.05117141 -0.04382616
000150 75 07 ee 3d 09 94 8b bd 8c 38 99 bd 18 ed ed 3d
       0.11622516 -0.06815345 -0.074814886 0.11617488
000160 04 63 68 bd 5c c0 a8 bd 69 77 c9 3b 60 45 d0 3d
       -0.056735054 -0.08239815 0.006148268 0.10169482
000170 e9 64 ef 3c 4d 9c 6b be 81 38 d3 3c d8 b7 65 be
       0.029222922 -0.23008843 0.02578378 -0.22433412
000180 18 76 a7 bd bc 1d ad 3d 2c fc 27 bd a4 f6 f8 3c
       -0.081768215 0.08452937 -0.041011974 0.030391045
000190 c9 53 26 be 0c 7a fe 3c 25 14 a5 3e 9a e6 84 be
       -0.16242899 0.031064056 0.32241932 -0.25957185
0001a0 d4 a0 27 3d 06 de ab bd 50 dd d1 be c3 1a b0 bd
       0.040924862 -0.08391957 -0.4098916 -0.085988544
0001b0 ef 99 f3 3c 81 06 aa 3c 2c ca a2 3d e4 b6 8f 3d
       0.029736487 0.020755054 0.079487175 0.070173055
0001c0 a2 59 77 bd 4e 77 36 bd af 6a bd bc ae 92 9f bd
       -0.060388215 -0.04454737 -0.02312216 -0.07791649
0001d0 6b 01 fe bc c9 5b b9 bd 35 b0 db bc 55 46 43 3e
       -0.031006536 -0.0905071 -0.02681742 0.19069798
0001e0 5d 85 c0 3d 9d f6 df bd b2 bc ce bd ff 38 f1 3d
       0.09400437 -0.109357096 -0.100945845 0.11778449
0001f0 82 40 0b bd 61 36 d3 bc 3f 33 00 3d ff 06 c7 3c
       -0.033997066 -0.025782766 0.031298872 0.024295328
000200 2c 65 66 3d 78 a8 eb 3c ae 6e a8 bd c6 90 9c 3d
       0.05624883 0.028766856 -0.082242355 0.07644801
000210 ae 88 0f 3d 06 56 05 be 1a e8 14 bd 35 1e df ba
       0.035042457 -0.13021097 -0.03635416 -0.0017022552
000220 63 a9 a7 3b fb dd 3f 3d c0 4b a0 bd d4 72 1d be
       0.005116628 0.046842556 -0.07826948 -0.15375835
000230 3f 9a a1 bc 16 d6 a2 bc dc 2c 8a 3c b1 19 0f bd
       -0.01972687 -0.019877475 0.016867094 -0.03493661
000240 42 8b 85 bd d7 7e a6 3e 7b 95 db 3e c7 31 2a be
       -0.06520702 0.32518646 0.42887482 -0.16620551
000250 8c 6a e0 3c a4 c2 a4 be e2 cb ee 3d f5 3d 3d 3e
       0.027394556 -0.3217975 0.11659981 0.18480666
000260 90 45 1c be 02 11 87 3d fe a1 15 be 04 73 cc 3c
       -0.15260911 0.06595041 -0.14612576 0.024957187
000270 6e 1b db bd 6d af aa be 85 fb bb be ed 84 44 3e
       -0.10698591 -0.33336964 -0.36715332 0.19191332
000280 03 dd 6c be 36 29 d7 3e 9a 5b 8d 3d 82 5b 40 be
       -0.23131184 0.4202363 0.06902237 -0.18784907
000290 26 47 bb 3c 35 49 a2 3d b3 1e 0f be ae 52 a1 3c
       0.022861075 0.079241194 -0.13976555 0.019692745
0002a0 f5 3a 32 3d 7a e6 81 bd 2e 95 d4 3d a8 ef d2 bc
       0.043513257 -0.06342788 0.10380016 -0.025749043
0002b0 9e e7 27 3d bd 6f 9a 3d dc 5f 56 bd 31 71 43 bd
       0.04099237 0.07540844 -0.052337512 -0.04771537
0002c0 3c 2b 88 3d 93 d7 8a 3b 39 aa a2 ba a9 ca ab bd
       0.06648871 0.004237124 -0.001241035 -0.08388264
0002d0 cf fb 8b 3e b8 20 03 3e 80 e3 4f be 4e e0 c4 bc
       0.27340552 0.1280545 -0.20301628 -0.024032738
0002e0 a6 64 7c 3e cb df 78 be 9d 29 a9 bb 3f 72 0b 3e
       0.2464777 -0.2430412 -0.0051624314 0.136178
0002f0 95 01 b3 bd c0 04 15 bf 8f a9 1c 3e ce 06 21 bf
       -0.08740536 -0.5821037 0.15299056 -0.6290101
000300 a2 34 0b bf b5 7c 0d 3f 69 32 6b 3c 48 3f 9f bd
       -0.54377186 0.5526841 0.01435528 -0.07775742
000310 3b ee 31 be 1d 42 b8 3e 3c 9b 50 bd 20 db 34 bc
       -0.17376034 0.3598794 -0.050929293 -0.011038572
000320 ea 95 15 bd 9d dd ab bc e9 71 bd 3d 89 8b 58 3d
       -0.036519922 -0.020979697 0.09250242 0.052867446
000330 2c 9b 80 ba 80 e1 1f bc 0d 1b 38 3d 63 01 c3 be
       -0.000981187 -0.009758353 0.044947673 -0.38086995
000340 24 8d a0 3d b8 f2 20 3e f8 9d 11 bc 1a 45 a7 3d
       0.078394204 0.1571759 -0.00888776 0.08167477
000350 23 85 0b be 04 ea c4 3c a3 2e 67 bd 15 62 9a 3d
       -0.13625006 0.024037369 -0.05644096 0.07538239
000360 41 a6 be 3d 07 51 f3 bd a8 f1 a3 bd 03 e1 e8 3c
       0.09309054 -0.11880689 -0.08005077 0.028427606
000370 0c 20 3b 3d b0 0c c3 bd 19 3d 2c 3e 31 05 f3 3c
       0.04568486 -0.09523904 0.16820182 0.029665561
000380 5f 42 85 3d ca 71 96 3d 36 2e 48 3c 55 3d e4 bd
       0.065068 0.07345922 0.012218049 -0.11144511
000390 76 8b 9a 3d ce 49 e9 3c f3 d3 a7 3b d3 98 94 bd
       0.07546131 0.028477576 0.005121702 -0.072557114
0003a0 a0 de 90 3c ad 88 53 bd f3 8c f2 be 71 3e 1c be
       0.01768428 -0.051644016 -0.4737316 -0.15258195
0003b0 14 77 dc 3e 15 1b 69 be 40 d7 4e 3c c4 27 2d be
       0.430596 -0.22764237 0.012624562 -0.169097
0003c0 c3 36 b9 bc 98 e1 bb 3d 19 60 6a 3d 75 45 28 be
       -0.02260912 0.09173888 0.057220552 -0.16432746
0003d0 90 1c 13 3f 35 c2 2e bc 67 d5 9c be 25 e6 ea 3d
       0.5746546 -0.01066642 -0.30631563 0.11469678
0003e0 3e 31 20 bd 7c 54 17 3d 0b 25 b3 be 06 d3 fe bd
       -0.03910946 0.036945805 -0.349892 -0.12442593
0003f0 d4 fc 83 bd 9c a4 1b be 88 fc 3c 3d ea 44 86 3d
       -0.064447075 -0.15199512 0.04613927 0.06556113

conv_block_2.2.bias f4 [10]
000000 85 a3 a2 3e 81 70 a1 3d ea 73 17 3e 3b 16 31 3c
       0.3176538 0.078827865 0.14790311 0.010808523
000010 80 cb 2b be 10 58 a0 3e fc 98 ab 3d 08 64 cd bd
       -0.16776848 0.31317186 0.08378789 -0.10028845
000020 e0 01 c9 bc c5 19 4a be
       -0.024537027 -0.19736393

classifier.1.weight f4 [10, 490]
000000 14 9f 8d 39 42 d2 33 bd 6d 69 df 3d bc 83 08 be
       0.00027012138 -0.04390169 0.1090878 -0.13331503
000010 53 5d f2 3a 6d f4 8d bc 6c 03 fd 3c 6b d9 8e 3d
       0.0018490948 -0.017328465 0.03088542 0.06975063
000020 7a 7a 5e 3e eb 8b 85 3d 7e 9d 56 be ca 6c c3 bc
       0.21726409 0.06520828 -0.20958516 -0.023855586
000030 76 4b f7 3d 92 e8 31 3e bb d9 a9 3d b7 84 9a 3d
       0.1207494 0.17373875 0.08293482 0.075448446
000040 d1 d2 5a 3e 2a f8 07 be 96 44 91 3d 8c 60 25 3e
       0.21369483 -0.13278261 0.0709316 0.16150111
000050 78 e6 ea bd 3a 1e 05 bb cb b1 b0 3d 4a e6 93 3d
       -0.1146974 -0.0020312206 0.08627661 0.072216585
000060 78 e7 ec bb 08 bf a0 3d 31 aa d0 3a 3f 9a 82 bd
       -0.0072297417 0.07848936 0.0015919862 -0.06377076
000070 22 e8 96 bd 73 4b 75 bd d2 08 24 bd db 11 68 bd
       -0.073684946 -0.059886407 -0.040047474 -0.056657653
000080 0e 34 49 3e c0 f5 e1 bd 83 db 66 bd ef d5 39 3d
       0.19648764 -0.11033201 -0.056361686 0.04537004
000090 83 69 f5 bd ee 9b 71 bd 8c 1d eb bc c2 95 67 bd
       -0.119830154 -0.058986597 -0.028700612 -0.056539305
0000a0 1c f4 47 3e 85 f6 bc bc b8 90 91 3d de 1f fb bd
       0.19526714 -0.023066768 0.07107681 -0.122619376
0000b0 a3 77 63 be 9d c3 e5 3c d3 d9 3d bd a6 96 9e 3e
       -0.22213607 0.028047377 -0.04635031 0.3097431
0000c0 ba d2 84 bd 53 de 94 3b 50 06 e4 bd fc 6a 84 bd
       -0.064855054 0.0045431047 -0.111340165 -0.06465718
0000d0 36 1e 02 3d 26 46 83 3d 56 ac 0c 3e e2 1b e5 3d
       0.031767093 0.06409864 0.13737616 0.11186959
0000e0 15 e6 00 bc 85 e3 d2 bd c2 fb b7 3d 79 03 20 3e
       -0.007867356 -0.10297302 0.08983566 0.15626325
0000f0 56 a3 83 be f6 a7 84 3d b4 84 05 3c f5 58 62 bb
       -0.25710553 0.064773485 0.008149315 -0.0034537886
000100 8d 34 f0 bb 89 80 ad 3c 04 b8 04 3e e0 52 40 bc
       -0.0073304833 0.021179454 0.12960821 -0.011738509
000110 d8 b5 8a 3e 96 3b 30 bb 5b 84 e1 bc 0e 19 fa 3d
       0.2709186 -0.0026890985 -0.027528932 0.1221181
000120 c8 58 10 bd 01 ff e8 3d 7d d7 25 3d 91 ba 8e bc
       -0.03524092 0.11376763 0.04048871 -0.017422946
000130 8b e1 81 bd 38 f3 b7 3c 55 b7 d0 3d 3d 50 fd bb
       -0.06341847 0.022454843 0.10191218 -0.0077305124
000140 5b f3 0a 3d 62 fd 8e bc ec d5 ac bc 38 5e 1d bd
       0.033923488 -0.017454807 -0.0210981 -0.038419932
000150 d5 3a 1c bd da 13 e7 bc 1d 6a 3c 3c 60 ac 1d be
       -0.038142044 -0.028207708 0.011499909 -0.15397787
000160 82 d4 a0 bd b5 31 0f bd 8e 01 73 bd be fb 49 3c
       -0.07853033 -0.034959514 -0.059327655 0.012328086
000170 5e 31 69 bd cb 23 87 3e cc 2c 2f be da cf d6 bd
       -0.056931846 0.26394495 -0.17106932 -0.10488863
000180 0c 0c 39 3d cc ff 19 bd 6e 17 96 3d 39 57 52 3d
       0.045177504 -0.037597463 0.073286876 0.051352713
000190 28 f0 c9 3d 75 65 3f bd 15 fa 56 3d 9a 98 8a 3d
       0.09860259 -0.046727616 0.05248459 0.06767388
0001a0 aa 25 62 3c 4b 80 7b 3e 64 3b 3f bb 76 c4 74 bd
       0.013802925 0.24560659 -0.0029179687 -0.059757672
0001b0 15 6d 0f 3d 19 89 51 bd d2 88 84 3d cf c2 50 3d
       0.035016138 -0.051156137 0.06471409 0.050967034
0001c0 4f 9b 19 3e 10 46 48 3e 5e 9f 52 3e 2c 75 1e bd
       0.15000652 0.19557977 0.20568606 -0.038685963
0001d0 33 17 bb 3c 4b c5 8b bd b7 bf dd bd 0f bf ca bc
       0.02283821 -0.0682474 -0.10827582 -0.024749307
0001e0 2a e7 20 be 34 07 73 3e 6c c6 37 be db bb 19 be
       -0.15713182 0.23733217 -0.17946786 -0.15013067
0001f0 42 7b 2a 3e 60 8f 8b bd 64 51 72 be 34 22 4c 3d
       0.16648582 -0.06814456 -0.2366386 0.049837306
000200 90 f3 88 3d eb 2d c8 bd c5 e5 14 be 9f 5a 1d 3e
       0.06687081 -0.09774383 -0.14540775 0.153666
000210 dd 6e 93 3d df 5f 3d be b1 69 94 3d 2b 6a 1b 3d
       0.0719888 -0.18493603 0.072467215 0.037943047
000220 38 4a e6 bd 28 a7 15 be dc 2c 45 bd ae 4f 9b 3d
       -0.11244625 -0.14614546 -0.048138484 0.07583557
000230 6a 88 24 bc 58 f4 0e 3d 66 2d ee 3c a2 ed 88 bd
       -0.010042289 0.034900993 0.029074382 -0.0668595
000240 4a 80 e5 bd f2 ec 46 be d8 e8 09 be a5 19 49 3e
       -0.1120611 -0.19426325 -0.13467729 0.19638689
000250 94 fb a3 bd bb 0e 02 be ba f7 0e 3c 4c 74 65 3d
       -0.08006969 -0.12700932 0.008726055 0.056019112
000260 19 f9 71 3d 83 e2 38 bc eb b1 ea bd c9 1c e1 bd
       0.05907545 -0.011284473 -0.114597164 -0.109918185
000270 a6 20 30 be 14 67 85 3c cb 59 cb 3c c7 cf 01 be
       -0.17199954 0.016284503 0.02482309 -0.12676917
000280 9e e1 db bd c2 8c c8 bd a4 c9 9c bc 43 8d dc bd
       -0.107363924 -0.097924724 -0.019139118 -0.10769131
000290 4d e8 7f 3d 79 a7 48 bd da d7 1f 3d 9e a3 8f 3d
       0.0624774 -0.04898784 0.03902421 0.070136294
0002a0 c4 fd a2 3d 7a e3 09 3e 3c 7d 83 bc 4e 5b 12 3c
       0.07958558 0.13465682 -0.016050927 0.008932902
0002b0 5a 37 c2 3c 58 a6 0a 3e 75 20 17 3e 5c 96 c0 3b
       0.023708034 0.13540018 0.14758475 0.0058772992
0002c0 63 f0 43 3e 88 75 a0 bd 61 e1 e5 bd 88 67 65 bd
       0.19134669 -0.07834917 -0.11224628 -0.05600694
0002d0 56 8d e6 bb c1 77 33 3e 5b 58 7d bd d6 bf 5e 3e
       -0.0070358915 0.17526151 -0.06185184 0.21752867
0002e0 8b 9d d5 bd 2c ad e2 bd 23 ee 4d bd c7 95 b3 bc
       -0.104304396 -0.11068186 -0.050275933 -0.021922005
0002f0 6e 90 b4 3d a1 cf bc bb 8e 35 b3 bd 44 3f d3 bd
       0.0881661 -0.005762056 -0.08750449 -0.10314801
000300 96 f0 ad bc bc 80 05 be b4 17 ab bd 87 11 1d 3d
       -0.021232884 -0.1303739 -0.083541304 0.038346794
000310 c3 9e 2a 3b d1 e0 63 bc 9c b1 94 3c aa 7c b0 bd
       0.002603457 -0.013908581 0.018151097 -0.08617528
000320 c1 57 02 3d ed 24 de 3c 1d 6a 9f 3c 7d ca e0 bb
       0.03182197 0.027117217 0.019459778 -0.006860076
000330 e8 29 59 bd 2a 41 34 3e c3 39 26 3e 36 ee f2 3c
       -0.05301848 0.17602983 0.16232972 0.029654603
000340 94 48 b4 bc e7 a7 9f bb 71 a4 ee 3d ab 9d 79 3e
       -0.022007264 -0.0048723104 0.116524585 0.24376552
000350 81 23 31 bd df 89 ae 3d c7 81 cd 3c e0 07 91 3e
       -0.04324675 0.085223906 0.025086297 0.2832632
000360 ff 18 1b 3e a2 de a2 3a e1 cc 5c bd 84 07 13 be
       0.15146254 0.0012425969 -0.053906325 -0.14358336
000370 5c 6b 30 bd 0f de d0 3c 35 17 4e 3e 5f e3 59 bc
       -0.043071136 0.02549651 0.2012604 -0.013298838
000380 3a 3c 07 3b 30 59 d2 bc 94 e2 92 bd c9 37 04 bd
       0.0020635263 -0.025677294 -0.071721226 -0.032279763
000390 cd 70 ca bd 17 52 21 bd 4a 55 6e bd 9b 96 46 bd
       -0.09884796 -0.039384928 -0.058186807 -0.048483472
0003a0 9e ce 94 bd b5 fe e4 3c 23 5e b6 bc 85 66 71 3d
       -0.072659716 0.027953485 -0.022261685 0.05893566
0003b0 bf 09 6e 3d cc f4 fc bd 28 48 f4 3b 75 1a d2 bc
       0.058114763 -0.12351379 0.0074548908 -0.025647381
0003c0 c6 e4 98 3d a1 c9 a1 bd 9f 64 82 bd 40 cb 88 bd
       0.0746551 -0.07899786 -0.06366848 -0.06679392
0003d0 5e aa c3 b9 e3 69 50 3c d2 c7 84 3d e7 3a 77 3d
       -0.00037320232 0.012720558 0.06483425 0.060358908
0003e0 c9 26 d6 3d 40 d3 82 3d dd 43 8f 3e 1f 5d ab 3d
       0.104566164 0.06387949 0.27981463 0.08367371
0003f0 3e 03 07 bd da 9e a2 bd c6 9b 27 3e bd 10 17 3e
       -0.032962076 -0.07940455 0.16368017 0.14752479

classifier.1.bias f4 [10]
000000 9d 7e c1 3d bc 62 f1 bd 7c 09 d3 3e 02 93 b4 bd
       0.09447978 -0.1178641 0.41218174 -0.08817102
000010 a2 67 b7 be b6 da 3a be 59 a9 47 3e de 06 58 bc
       -0.35821253 -0.18247494 0.19498195 -0.013185231
000020 7a 0b 00 3e 48 2f d4 bd
       0.12504378 -0.10360581
